trained.tflite (tflite, 534888 bytes, 4 tensors)

sequential/y_pred/MatMul i1 [4, 64] scale=0.004471105 zero_point=0
-0.12519094 -0.09836431 -0.34874618 0.21014194 0.22355525 0.19672862 0.19672862 0.18778642
-0.111777626 0.19672862 0.28167963 0.23696856 -0.34874618 -0.3711017 -0.29509294 -0.1788442
-0.19672862 0.15201758 -0.23249747 0.16095978 -0.23249747 0.1833153 -0.13413315 0.25485298
0.116248734 0.2637952 0.10283542 0.2772085 0.3532173 -0.23249747 -0.5678303 -0.026826631
0.19225752 0.08047989 0.2772085 0.25485298 -0.084951 -0.053653263 -0.120719835 -0.23696856
-0.18778642 -0.20567083 -0.12966205 0.1788442 -0.17437309 -0.39792836 -0.23249747 -0.084951
0.2772085 0.15201758 0.17437309 -0.3532173 0.2637952 0.23696856 -0.24143967 -0.13413315
-0.23696856 0.13860425 0.00894221 -0.2593241 -0.0894221 0.107306525 0.16543089 0.040239945
-0.17437309 -0.36215952 -0.169902 -0.0894221 -0.09836431 -0.040239945 -0.20119973 -0.1788442
0.031297736 0.0 0.053653263 0.058124367 0.2682663 0.2593241 -0.026826631 -0.09389321
-0.24591078 -0.013413316 0.19672862 -0.14307536 -0.004471105 -0.06706657 0.04471105 0.026826631
-0.28167963 0.24143967 0.2682663 -0.29062182 0.29062182 0.031297736 0.21014194 -0.28167963
0.031297736 0.058124367 -0.0894221 0.022355525 0.03576884 -0.20567083 0.40687057 0.03576884
-0.38898614 -0.12966205 -0.116248734 -0.116248734 0.107306525 0.31744847 -0.040239945 0.120719835
0.013413316 -0.34874618 0.32191956 -0.15201758 0.04471105 0.09389321 -0.16095978 -0.42475498
0.29062182 -0.111777626 -0.15201758 -0.120719835 -0.111777626 -0.13413315 0.12966205 0.111777626
-0.120719835 -0.022355525 0.16095978 -0.2503819 -0.29956403 0.0 0.053653263 -0.1788442
-0.013413316 -0.15648867 0.026826631 0.15648867 0.18778642 0.3442751 -0.33533287 0.16095978
0.20567083 -0.34874618 -0.01788442 -0.058124367 -0.16095978 0.08047989 -0.30850625 -0.30850625
0.20567083 -0.06259547 -0.3442751 -0.12519094 -0.13860425 -0.022355525 0.30403516 -0.22355525
-0.049182154 -0.04471105 -0.111777626 -0.06259547 0.22802636 0.3711017 -0.2503819 0.06259547
0.058124367 0.107306525 0.22802636 -0.32639068 0.00894221 -0.33533287 0.38898614 -0.33086178
-0.21014194 -0.06706657 0.23696856 0.10283542 -0.053653263 -0.004471105 0.32639068 -0.33533287
0.01788442 0.16543089 -0.08047989 -0.07153768 0.06706657 0.22355525 -0.33533287 0.013413316
-0.29062182 -0.33086178 0.2593241 -0.084951 -0.107306525 0.07153768 0.107306525 0.022355525
0.058124367 0.22802636 -0.03576884 0.058124367 0.111777626 -0.29509294 -0.004471105 0.13413315
0.049182154 0.28167963 -0.2503819 0.10283542 0.2503819 -0.111777626 -0.06706657 0.20567083
-0.21908414 -0.013413316 0.30850625 -0.28167963 -0.3442751 -0.040239945 -0.19672862 0.13860425
0.15648867 0.19225752 -0.24591078 -0.19225752 0.22802636 -0.3711017 -0.12966205 0.004471105
0.29062182 0.0894221 0.169902 0.28167963 0.09836431 -0.00894221 0.004471105 -0.12966205
-0.23696856 0.031297736 -0.21461305 -0.004471105 0.22802636 0.004471105 0.0 0.06706657
0.049182154 0.13413315 -0.09836431 -0.13860425 0.169902 -0.28615072 -0.20567083 -0.1788442
00000000: e4ea b22f 322c 2c2a e72c 3f35 b2ad bed8
00000010: d422 cc24 cc29 e239 1a3b 173e 4fcc 81fa
00000020: 2b12 3e39 edf4 e5cb d6d2 e328 d9a7 cced
00000030: 3e22 27b1 3b35 cae2 cb1f 02c6 ec18 2509
00000040: d9af daec eaf7 d3d8 0700 0c0d 3c3a faeb
00000050: c9fd 2ce0 fff1 0a06 c136 3cbf 4107 2fc1
00000060: 070d ec05 08d2 5b08 a9e3 e6e6 1847 f71b
00000070: 03b2 48de 0a15 dca1 41e7 dee5 e7e2 1d19
00000080: e5fb 24c8 bd00 0cd8 fddd 0623 2a4d b524
00000090: 2eb2 fcf3 dc12 bbbb 2ef2 b3e4 e1fb 44ce
000000a0: f5f6 e7f2 3353 c80e 0d18 33b7 02b5 57b6
000000b0: d1f1 3517 f4ff 49b5 0425 eef0 0f32 b503
000000c0: bfb6 3aed e810 1805 0d33 f80d 19be ff1e
000000d0: 0b3f c817 38e7 f12e cffd 45c1 b3f7 d41f
000000e0: 232b c9d5 33ad e301 4114 263f 16fe 01e3
000000f0: cb07 d0ff 3301 000f 0b1e eae1 26c0 d2d8

sequential/dense/MatMul i1 [64, 8192] scale=0.0022700275 zero_point=0
0.013620165 -0.00908011 -0.0068100826 0.00908011 -0.00908011 -0.024970302 0.015890192 0.0068100826
-0.0068100826 0.004540055 -0.01816022 0.024970302 -0.0022700275 -0.020430248 0.004540055 0.020430248
-0.011350138 0.013620165 -0.03859047 -0.020430248 0.022700276 -0.015890192 0.011350138 -0.0068100826
-0.02724033 -0.015890192 -0.004540055 -0.0068100826 -0.004540055 0.022700276 -0.00908011 0.00908011
-0.0022700275 0.015890192 0.015890192 -0.029510358 -0.024970302 0.022700276 -0.0068100826 -0.004540055
-0.015890192 0.0 -0.01816022 0.004540055 -0.02724033 0.0068100826 -0.004540055 0.022700276
0.022700276 0.0 0.004540055 0.024970302 0.00908011 -0.0068100826 0.00908011 -0.011350138
-0.020430248 0.004540055 -0.02724033 -0.029510358 0.011350138 -0.0022700275 -0.03859047 -0.020430248
-0.015890192 0.022700276 -0.013620165 0.020430248 -0.02724033 -0.01816022 0.01816022 -0.0022700275
0.013620165 -0.00908011 0.015890192 0.0022700275 -0.00908011 0.02724033 -0.004540055 -0.024970302
0.015890192 0.022700276 -0.034050412 0.02724033 -0.0068100826 -0.020430248 0.004540055 0.0068100826
-0.020430248 -0.00908011 -0.024970302 -0.022700276 -0.013620165 -0.022700276 0.015890192 0.022700276
0.011350138 0.015890192 0.0 0.004540055 -0.013620165 0.004540055 -0.015890192 0.0022700275
-0.00908011 -0.011350138 -0.015890192 -0.02724033 0.0068100826 0.013620165 0.020430248 -0.01816022
0.0068100826 0.01816022 -0.015890192 0.013620165 0.022700276 0.0022700275 0.0068100826 0.011350138
-0.02724033 -0.0022700275 0.022700276 -0.01816022 0.020430248 -0.00908011 -0.022700276 0.0022700275
0.004540055 -0.011350138 0.015890192 0.0068100826 -0.011350138 0.024970302 0.013620165 -0.020430248
-0.022700276 -0.011350138 0.0 -0.015890192 -0.02724033 -0.00908011 0.004540055 -0.02724033
-0.0022700275 -0.00908011 -0.0068100826 0.013620165 -0.01816022 -0.022700276 0.024970302 -0.011350138
0.004540055 -0.01816022 -0.015890192 0.0022700275 -0.020430248 0.02724033 -0.020430248 -0.004540055
-0.004540055 0.0 0.0 -0.024970302 0.013620165 0.011350138 0.01816022 0.013620165
-0.013620165 0.011350138 -0.004540055 -0.03632044 0.0 0.024970302 -0.022700276 0.013620165
0.0 -0.022700276 -0.024970302 -0.020430248 -0.01816022 -0.0068100826 -0.02724033 0.0
-0.00908011 -0.02724033 0.004540055 -0.0022700275 -0.0068100826 0.024970302 -0.020430248 0.0068100826
-0.004540055 -0.015890192 0.020430248 -0.011350138 -0.031780384 -0.011350138 -0.015890192 -0.020430248
0.0022700275 -0.01816022 -0.022700276 -0.022700276 -0.004540055 0.00908011 -0.0022700275 -0.00908011
-0.024970302 -0.02724033 -0.031780384 0.015890192 -0.02724033 0.015890192 0.0068100826 -0.02724033
0.0022700275 0.02724033 -0.022700276 -0.00908011 -0.0068100826 -0.011350138 -0.004540055 0.013620165
-0.011350138 0.0022700275 0.0022700275 -0.020430248 -0.020430248 -0.00908011 0.020430248 -0.013620165
0.0068100826 -0.020430248 -0.022700276 -0.011350138 -0.022700276 -0.00908011 0.015890192 -0.020430248
0.01816022 0.020430248 0.015890192 0.0068100826 0.022700276 0.0022700275 0.0 -0.015890192
-0.01816022 0.013620165 -0.022700276 0.01816022 0.0022700275 0.004540055 -0.022700276 -0.024970302
00000000: 06fc fd04 fcf5 0703 fd02 f80b fff7 0209
00000010: fb06 eff7 0af9 05fd f4f9 fefd fe0a fc04
00000020: ff07 07f3 f50a fdfe f900 f802 f403 fe0a
00000030: 0a00 020b 04fd 04fb f702 f4f3 05ff eff7
00000040: f90a fa09 f4f8 08ff 06fc 0701 fc0c fef5
00000050: 070a f10c fdf7 0203 f7fc f5f6 faf6 070a
00000060: 0507 0002 fa02 f901 fcfb f9f4 0306 09f8
00000070: 0308 f906 0a01 0305 f4ff 0af8 09fc f601
00000080: 02fb 0703 fb0b 06f7 f6fb 00f9 f4fc 02f4
00000090: fffc fd06 f8f6 0bfb 02f8 f901 f70c f7fe
000000a0: fe00 00f5 0605 0806 fa05 fef0 000b f606
000000b0: 00f6 f5f7 f8fd f400 fcf4 02ff fd0b f703
000000c0: fef9 09fb f2fb f9f7 01f8 f6f6 fe04 fffc
000000d0: f5f4 f207 f407 03f4 010c f6fc fdfb fe06
000000e0: fb01 01f7 f7fc 09fa 03f7 f6fb f6fc 07f7
000000f0: 0809 0703 0a01 00f9 f806 f608 0102 f6f5

sequential/conv2d_1/Conv2D i1 [32, 3, 3, 16]
32 57 -25 -2 40 -40 -71 35
29 7 -97 42 2 65 9 49
-28 24 -55 52 -37 32 77 15
-50 -61 -127 53 45 15 -66 27
40 34 -5 58 -10 -40 10 20
30 -44 -95 12 20 -27 34 30
-58 -26 19 28 101 26 13 21
104 55 -1 -70 15 37 73 -28
-61 -21 -22 -56 24 24 66 -51
12 -29 -18 -30 9 -37 -45 5
-32 -7 -42 -30 -25 29 22 -16
48 -26 -48 -86 -45 -8 -54 32
-1 69 -44 -45 8 64 11 43
66 17 -29 -69 -10 16 17 -21
-2 47 -51 -3 67 42 -51 -23
89 44 5 -76 -16 -15 -30 26
-36 19 -44 -9 39 -37 -88 -10
-14 -44 -27 -64 2 -22 5 36
-9 -10 -5 -32 -61 -29 -26 12
41 -19 -87 36 -9 33 -93 35
-19 10 -16 5 -7 -93 -77 -70
-65 -15 -47 54 -38 37 -15 57
-79 7 12 -53 11 6 -79 -20
-15 -34 -91 42 21 100 25 59
95 44 53 29 -39 59 -12 20
15 -32 8 47 -20 -82 63 9
105 -28 48 -43 32 44 -39 7
-28 -34 -25 94 -61 -82 -21 -89
15 -56 -12 -25 19 5 -74 -23
-39 -13 -7 56 -8 -8 8 58
-42 -47 -56 16 32 44 -20 41
-73 40 66 -105 -35 58 -65 81
00000000: 2039 e7fe 28d8 b923 1d07 9f2a 0241 0931
00000010: e418 c934 db20 4d0f cec3 8135 2d0f be1b
00000020: 2822 fb3a f6d8 0a14 1ed4 a10c 14e5 221e
00000030: c6e6 131c 651a 0d15 6837 ffba 0f25 49e4
00000040: c3eb eac8 1818 42cd 0ce3 eee2 09db d305
00000050: e0f9 d6e2 e71d 16f0 30e6 d0aa d3f8 ca20
00000060: ff45 d4d3 0840 0b2b 4211 e3bb f610 11eb
00000070: fe2f cdfd 432a cde9 592c 05b4 f0f1 e21a
00000080: dc13 d4f7 27db a8f6 f2d4 e5c0 02ea 0524
00000090: f7f6 fbe0 c3e3 e60c 29ed a924 f721 a323
000000a0: ed0a f005 f9a3 b3ba bff1 d136 da25 f139
000000b0: b107 0ccb 0b06 b1ec f1de a52a 1564 193b
000000c0: 5f2c 351d d93b f414 0fe0 082f ecae 3f09
000000d0: 69e4 30d5 202c d907 e4de e75e c3ae eba7
000000e0: 0fc8 f4e7 1305 b6e9 d9f3 f938 f8f8 083a
000000f0: d6d1 c810 202c ec29 b728 4297 dd3a bf51

sequential/conv2d/Conv2D i1 [16, 3, 3, 3]
31 -19 -93 86 -111 10 116 -127
-23 -15 37 59 55 -10 20 -87
1 54 18 68 52 -94 -41 113
-36 80 -78 -127 -9 -102 -124 -17
-53 59 94 -85 110 76 60 14
-71 -35 18 -25 26 -39 16 81
-43 3 74 18 -13 45 97 -127
-108 69 -100 28 67 -98 53 96
88 -8 57 -115 -20 -63 -120 105
67 -21 47 25 12 50 100 104
-52 -90 13 95 86 114 22 -30
40 109 22 49 68 42 121 127
53 104 82 -80 -126 -108 -27 40
81 76 -46 -22 49 -12 -64 -26
-3 -70 32 9 -33 -90 -83 -127
-101 -28 22 -38 -8 68 -4 -8
66 98 14 113 73 74 52 3
17 68 -60 -57 -60 7 -74 -94
49 24 127 18 35 -21 -95 -39
12 9 84 -41 63 49 -27 -25
-43 19 84 43 23 -53 -73 -60
-50 15 -48 47 17 29 -3 127
58 -5 43 -75 -105 -49 -54 62
-25 67 39 4 -46 67 76 98
-101 -23 105 33 -57 -37 -80 -43
-108 77 21 127 -49 76 3 26
38 -57 -81 -107 22 -4 100 49
47 27 -25 -67 -36 -105 -95 29
-47 -102 -1 56 -29 -106 -124 62
-31 -17 -8 106 65 92 -23 63
5 127 122 -71 90 95 82 -8
-64 -102 30 -45 115 -40 37 -72
00000000: 1fed a356 910a 7481 e9f1 253b 37f6 14a9
00000010: 0136 1244 34a2 d771 dc50 b281 f79a 84ef
00000020: cb3b 5eab 6e4c 3c0e b9dd 12e7 1ad9 1051
00000030: d503 4a12 f32d 6181 9445 9c1c 439e 3560
00000040: 58f8 398d ecc1 8869 43eb 2f19 0c32 6468
00000050: cca6 0d5f 5672 16e2 286d 1631 442a 797f
00000060: 3568 52b0 8294 e528 514c d2ea 31f4 c0e6
00000070: fdba 2009 dfa6 ad81 9be4 16da f844 fcf8
00000080: 4262 0e71 494a 3403 1144 c4c7 c407 b6a2
00000090: 3118 7f12 23eb a1d9 0c09 54d7 3f31 e5e7
000000a0: d513 542b 17cb b7c4 ce0f d02f 111d fd7f
000000b0: 3afb 2bb5 97cf ca3e e743 2704 d243 4c62
000000c0: 9be9 6921 c7db b0d5 944d 157f cf4c 031a
000000d0: 26c7 af95 16fc 6431 2f1b e7bd dc97 a11d
000000e0: d19a ff38 e396 843e e1ef f86a 415c e93f
000000f0: 057f 7ab9 5a5f 52f8 c09a 1ed3 73d8 25b8
